…
   ]
  },
  {
   "cell_type": "markdown",
   "metadata": {},
   "source": [
    "Let's display the architecture of the network:"
   ]
  },
  {
   "cell_type": "code",
   "execution_count": 18,
   "metadata": {},
   "outputs": [
    {
     "name": "stdout",
     "output_type": "stream",
     "text": [
      "Model: \"sequential_1\"\n",
      "_________________________________________________________________\n",
      "Layer (type)                 Output Shape              Param #   \n",
      "=================================================================\n",
      "conv2d (Conv2D)              (None, 26, 26, 32)        320       \n",
      "_________________________________________________________________\n",
      "max_pooling2d (MaxPooling2D) (None, 13, 13, 32)        0         \n",
      "_________________________________________________________________\n",
      "conv2d_1 (Conv2D)            (None, 11, 11, 64)        18496     \n",
      "_________________________________________________________________\n",
      "max_pooling2d_1 (MaxPooling2 (None, 5, 5, 64)          0         \n",
      "_________________________________________________________________\n",
      "conv2d_2 (Conv2D)            (None, 3, 3, 64)          36928     \n",
      "=================================================================\n",
      "Total params: 55,744\n",
      "Trainable params: 55,744\n",
      "Non-trainable params: 0\n",
      "_________________________________________________________________\n"
     ]
    }
   ],
   "source": [
    "model_conv.summary()"
   ]
  },
  {
   "cell_type": "markdown",
   "metadata": {},
   "source": [
…
    "model_conv.add(layers.Dense(64, activation='relu'))\n",
    "model_conv.add(layers.Dense(NUM_CLASSES, activation='softmax'))"
   ]
  },
  {
   "cell_type": "code",
   "execution_count": 20,
   "metadata": {},
   "outputs": [
    {
     "name": "stdout",
     "output_type": "stream",
     "text": [
      "Model: \"sequential_1\"\n",
      "_________________________________________________________________\n",
      "Layer (type)                 Output Shape              Param #   \n",
      "=================================================================\n",
      "conv2d (Conv2D)              (None, 26, 26, 32)        320       \n",
      "_________________________________________________________________\n",
      "max_pooling2d (MaxPooling2D) (None, 13, 13, 32)        0         \n",
      "_________________________________________________________________\n",
      "conv2d_1 (Conv2D)            (None, 11, 11, 64)        18496     \n",
      "_________________________________________________________________\n",
      "max_pooling2d_1 (MaxPooling2 (None, 5, 5, 64)          0         \n",
      "_________________________________________________________________\n",
      "conv2d_2 (Conv2D)            (None, 3, 3, 64)          36928     \n",
      "_________________________________________________________________\n",
      "flatten (Flatten)            (None, 576)               0         \n",
      "_________________________________________________________________\n",
      "dense_2 (Dense)              (None, 64)                36928     \n",
      "_________________________________________________________________\n",
      "dense_3 (Dense)              (None, 10)                650       \n",
      "=================================================================\n",
      "Total params: 93,322\n",
      "Trainable params: 93,322\n",
      "Non-trainable params: 0\n",
      "_________________________________________________________________\n"
     ]
    }
   ],
   "source": [
    "model_conv.summary()"
   ]
  },
  {
   "cell_type": "markdown",
   "metadata": {},
   "source": [
…
    "* Using `batch size` in training to have the network train faster. The batch size is the number of samples that are passed to the network at once. The weights will then be updated after each propagation of a batch size.  "
   ]
  },
  {
   "cell_type": "code",
   "execution_count": 26,
   "metadata": {},
   "outputs": [
    {
     "name": "stdout",
     "output_type": "stream",
     "text": [
      "Model: \"sequential_2\"\n",
      "_________________________________________________________________\n",
      "Layer (type)                 Output Shape              Param #   \n",
      "=================================================================\n",
      "conv2d_3 (Conv2D)            (None, 26, 26, 64)        640       \n",
      "_________________________________________________________________\n",
      "conv2d_4 (Conv2D)            (None, 24, 24, 64)        36928     \n",
      "_________________________________________________________________\n",
      "batch_normalization (BatchNo (None, 24, 24, 64)        256       \n",
      "_________________________________________________________________\n",
      "max_pooling2d_2 (MaxPooling2 (None, 12, 12, 64)        0         \n",
      "_________________________________________________________________\n",
      "dropout (Dropout)            (None, 12, 12, 64)        0         \n",
      "_________________________________________________________________\n",
      "conv2d_5 (Conv2D)            (None, 10, 10, 128)       73856     \n",
      "_________________________________________________________________\n",
      "conv2d_6 (Conv2D)            (None, 8, 8, 128)         147584    \n",
      "_________________________________________________________________\n",
      "batch_normalization_1 (Batch (None, 8, 8, 128)         512       \n",
      "_________________________________________________________________\n",
      "max_pooling2d_3 (MaxPooling2 (None, 4, 4, 128)         0         \n",
      "_________________________________________________________________\n",
      "dropout_1 (Dropout)          (None, 4, 4, 128)         0         \n",
      "_________________________________________________________________\n",
      "conv2d_7 (Conv2D)            (None, 2, 2, 128)         147584    \n",
      "_________________________________________________________________\n",
      "flatten_1 (Flatten)          (None, 512)               0         \n",
      "_________________________________________________________________\n",
      "dropout_2 (Dropout)          (None, 512)               0         \n",
      "_________________________________________________________________\n",
      "dense_4 (Dense)              (None, 64)                32832     \n",
      "_________________________________________________________________\n",
      "dropout_3 (Dropout)          (None, 64)                0         \n",
      "_________________________________________________________________\n",
      "dense_5 (Dense)              (None, 10)                650       \n",
      "=================================================================\n",
      "Total params: 440,842\n",
      "Trainable params: 440,458\n",
      "Non-trainable params: 384\n",
      "_________________________________________________________________\n"
     ]
    }
   ],
   "source": [
    "model_conv2 = models.Sequential()\n",
    "\n",
    "model_conv2.add(layers.Conv2D(64, (3, 3), activation='relu', input_shape=INPUT_SHAPE))\n",
…
   "cell_type": "code",
   "execution_count": 38,
   "metadata": {},
   "outputs": [
    {
     "name": "stdout",
     "output_type": "stream",
     "text": [
      "Model: \"vgg16\"\n",
      "_________________________________________________________________\n",
      "Layer (type)                 Output Shape              Param #   \n",
      "=================================================================\n",
      "input_1 (InputLayer)         [(None, 32, 32, 3)]       0         \n",
      "_________________________________________________________________\n",
      "block1_conv1 (Conv2D)        (None, 32, 32, 64)        1792      \n",
      "_________________________________________________________________\n",
      "block1_conv2 (Conv2D)        (None, 32, 32, 64)        36928     \n",
      "_________________________________________________________________\n",
      "block1_pool (MaxPooling2D)   (None, 16, 16, 64)        0         \n",
      "_________________________________________________________________\n",
      "block2_conv1 (Conv2D)        (None, 16, 16, 128)       73856     \n",
      "_________________________________________________________________\n",
      "block2_conv2 (Conv2D)        (None, 16, 16, 128)       147584    \n",
      "_________________________________________________________________\n",
      "block2_pool (MaxPooling2D)   (None, 8, 8, 128)         0         \n",
      "_________________________________________________________________\n",
      "block3_conv1 (Conv2D)        (None, 8, 8, 256)         295168    \n",
      "_________________________________________________________________\n",
      "block3_conv2 (Conv2D)        (None, 8, 8, 256)         590080    \n",
      "_________________________________________________________________\n",
      "block3_conv3 (Conv2D)        (None, 8, 8, 256)         590080    \n",
      "_________________________________________________________________\n",
      "block3_pool (MaxPooling2D)   (None, 4, 4, 256)         0         \n",
      "_________________________________________________________________\n",
      "block4_conv1 (Conv2D)        (None, 4, 4, 512)         1180160   \n",
      "_________________________________________________________________\n",
      "block4_conv2 (Conv2D)        (None, 4, 4, 512)         2359808   \n",
      "_________________________________________________________________\n",
      "block4_conv3 (Conv2D)        (None, 4, 4, 512)         2359808   \n",
      "_________________________________________________________________\n",
      "block4_pool (MaxPooling2D)   (None, 2, 2, 512)         0         \n",
      "_________________________________________________________________\n",
      "block5_conv1 (Conv2D)        (None, 2, 2, 512)         2359808   \n",
      "_________________________________________________________________\n",
      "block5_conv2 (Conv2D)        (None, 2, 2, 512)         2359808   \n",
      "_________________________________________________________________\n",
      "block5_conv3 (Conv2D)        (None, 2, 2, 512)         2359808   \n",
      "_________________________________________________________________\n",
      "block5_pool (MaxPooling2D)   (None, 1, 1, 512)         0         \n",
      "=================================================================\n",
      "Total params: 14,714,688\n",
      "Trainable params: 14,714,688\n",
      "Non-trainable params: 0\n",
      "_________________________________________________________________\n"
     ]
    }
   ],
   "source": [
    "from keras.applications import VGG16\n",
    "import cv2\n",
    "\n",
    "model_vgg = VGG16(weights=\"imagenet\",\n",
…
    "plt.show()"
   ]
  },
  {
   "cell_type": "markdown",
   "metadata": {},
   "source": [
    "Let's build the top of the network."
   ]
  },
  {
   "cell_type": "code",
   "execution_count": 45,
   "metadata": {},
   "outputs": [
    {
     "name": "stdout",
     "output_type": "stream",
     "text": [
      "Model: \"sequential_4\"\n",
      "_________________________________________________________________\n",
      "Layer (type)                 Output Shape              Param #   \n",
      "=================================================================\n",
      "vgg16 (Functional)           (None, 1, 1, 512)         14714688  \n",
      "_________________________________________________________________\n",
      "flatten_3 (Flatten)          (None, 512)               0         \n",
      "_________________________________________________________________\n",
      "dropout_8 (Dropout)          (None, 512)               0         \n",
      "_________________________________________________________________\n",
      "dense_8 (Dense)              (None, 64)                32832     \n",
      "_________________________________________________________________\n",
      "dropout_9 (Dropout)          (None, 64)                0         \n",
      "_________________________________________________________________\n",
      "dense_9 (Dense)              (None, 10)                650       \n",
      "=================================================================\n",
      "Total params: 14,748,170\n",
      "Trainable params: 14,748,170\n",
      "Non-trainable params: 0\n",
      "_________________________________________________________________\n"
     ]
    }
   ],
   "source": [
    "model_transfer = models.Sequential()\n",
    "model_transfer.add(model_vgg)\n",
    "model_transfer.add(layers.Flatten())\n",
…
